…
750/750 [==============================] - 854s 1s/step - loss: 0.3464 - accuracy: 0.8493 - val_loss: 0.3918 - val_accuracy: 0.8127
Epoch 5/5
750/750 [==============================] - 846s 1s/step - loss: 0.3185 - accuracy: 0.8662 - val_loss: 0.3941 - val_accuracy: 0.8170
Test accuracy at level 2: 0.795
==============================================================





Model: "sequential"
_________________________________________________________________
Layer (type)                 Output Shape              Param #   
=================================================================
batch_normalization (BatchNo (None, 29573, 3)          12        
_________________________________________________________________
conv1d (Conv1D)              (None, 29566, 16)         400       
_________________________________________________________________
max_pooling1d (MaxPooling1D) (None, 7391, 16)          0         
_________________________________________________________________
conv1d_1 (Conv1D)            (None, 7360, 32)          16416     
_________________________________________________________________
max_pooling1d_1 (MaxPooling1 (None, 1840, 32)          0         
_________________________________________________________________
conv1d_2 (Conv1D)            (None, 1777, 64)          131136    
_________________________________________________________________
max_pooling1d_2 (MaxPooling1 (None, 444, 64)           0         
_________________________________________________________________
conv1d_3 (Conv1D)            (None, 317, 128)          1048704   
_________________________________________________________________
max_pooling1d_3 (MaxPooling1 (None, 79, 128)           0         
_________________________________________________________________
flatten (Flatten)            (None, 10112)             0         
_________________________________________________________________
dense (Dense)                (None, 32)                323616    
_________________________________________________________________
dense_1 (Dense)              (None, 1)                 33        
=================================================================
Total params: 1,520,317
Trainable params: 1,520,311
Non-trainable params: 6
_________________________________________________________________
"""
